TensorFlow_FullTutorial/ESP32_TF/celcius_a_fahrenheit.tflite (tflite, 1676 bytes, 4 tensors)

dense_3/bias f4 [5]
0	0x3fc392f9	1.5279227
1	0x3fba161b	1.4537996
2	0x3fd80e9a	1.6879456
3	0x3fc07736	1.503638
4	0xbfd9395e	-1.6970632

sequential_1/dense_3/MatMul f4 [5, 1]
0	0xbeb2bedd	-0.34911242
1	0x3f54e49d	0.83161336
2	0x3e949a2a	0.29023868
3	0x3f095b85	0.5365527
4	0xbbd69801	-0.006548882

sequential_1/dense_4/MatMul f4 [5, 5]
0	0xbee62800	-0.44952393
1	0xbd8227bb	-0.06355234
2	0xbf05e742	-0.52305996
3	0x3bc2bf12	0.0059431875
4	0x3f333117	0.6999678
5	0x3edd0083	0.43164453
6	0xbe2cb336	-0.16865239
7	0xbf482e57	-0.7819571
8	0xbf10fd06	-0.56636083
9	0x3f240541	0.64070517
10	0xbec0ab16	-0.37630528
11	0xbee1fa01	-0.4413605
12	0xbf1575d6	-0.5838293
13	0x3ec5c258	0.38624835
14	0x3fb5a54e	1.4191072
15	0xbef495d1	-0.4777055
16	0xbf2b12e0	-0.66825676
17	0x3f035df7	0.51315254
18	0xbf077d4f	-0.5292558
19	0x3fb53e22	1.4159586
20	0x3f0b844b	0.5449874
21	0xbc0ec83c	-0.008714732
22	0x3defe99d	0.1171448
23	0x3e9384f0	0.2881236
24	0xbfca04f5	-1.5782763

sequential_1/dense_5/MatMul f4 [1, 5]
0	0xbf9a7d8b	-1.2069563
1	0xbf792861	-0.9732724
2	0xbfac2cee	-1.3451211
3	0xbf9c5786	-1.221421
4	0x3fa826e1	1.3136865
