TensorFlow_HelloWorld/models/model_no_quant.tflite (tflite, 2956 bytes, 5 tensors)

dense_9/bias f4 [16]
000000 7c a2 9a 3e 31 01 66 3f 25 89 49 bf 10 5e 1f be
       0.3020209 0.8984557 -0.7872489 -0.15563226
000010 e4 63 f5 be f5 65 77 3f 72 12 d7 bb 00 00 00 00
       -0.47927773 0.9663995 -0.006563478 0.0
000020 32 54 a9 3e 0b 4f 9e 3f b0 6f 6b 3f 16 db 25 bd
       0.33072048 1.2367872 0.91967297 -0.04049214
000030 00 00 00 00 7d 08 c9 3e 89 94 e9 3e ec 1a 96 3e
       0.0 0.3926429 0.45621136 0.29317415

dense_8/bias f4 [16]
000000 31 a7 59 3f 00 00 00 00 f6 5c 18 be 00 00 00 00
       0.8502074 0.0 -0.14879212 0.0
000010 04 58 9e 3f 00 00 00 00 3e 9b bb 3e 6b a1 5e bf
       1.237061 0.0 0.36641878 -0.86965054
000020 00 00 00 00 dd ec 9c bf 79 b9 59 be 00 00 00 00
       0.0 -1.2259785 -0.21262158 0.0
000030 00 00 00 00 00 00 00 00 bd 01 8d bf 6b 2d b6 3e
       0.0 0.0 -1.1016155 0.35581526

sequential_3/dense_8/MatMul f4 [16, 1]
000000 78 91 af 3d 80 d7 ca be 0c 2b 84 3e ad e2 0d bf
       0.08572668 -0.39617538 0.25814092 -0.55424005
000010 c6 32 26 3e 9c e7 91 be ae 7e b8 3e 5b 03 c9 3e
       0.16230306 -0.28497016 0.3603415 0.39260373
000020 14 02 2d be 45 e8 d3 3e 83 ab 00 3e 22 4d 00 bf
       -0.16895324 0.41388145 0.12565427 -0.50117695
000030 5a 27 86 be b2 7e cc be e5 31 a9 3e a7 d7 77 3e
       -0.26201898 -0.3994041 0.3304588 0.24203359

sequential_3/dense_9/MatMul f4 [16, 16]
000000 67 2e d5 3e 06 44 28 3e a8 96 68 3e 16 da 28 3e
       0.41636965 0.16432199 0.22713721 0.16489443
000010 1a 72 02 bd ce c5 54 3e 66 ac 9a 3e 70 b4 1a be
       -0.031847097 0.20778582 0.30209655 -0.15107894
000020 a8 97 2c bd d8 96 df bc 05 12 84 3d 07 20 86 3e
       -0.04213682 -0.027293608 0.064487495 0.2619631
000030 94 b1 9e be c4 57 dd bd d4 d5 0f bf 1c 6f aa 3e
       -0.30994856 -0.108077556 -0.5618565 0.33287895
000040 f4 9a 81 3e ed ae 87 be 67 70 32 be af b4 59 be
       0.25313532 -0.26500645 -0.1742569 -0.21260332
000050 35 1b 61 3f 6c e9 ba 3d cf a2 82 3d 9c 19 5c bf
       0.8793214 0.09126553 0.063787095 -0.85976577
000060 58 ac 5d be 47 58 40 bf b4 3c a6 bf 3a f9 5d 3e
       -0.21647775 -0.751347 -1.2987275 0.21677104
000070 d6 b5 0a 3e 8c 23 c5 be e4 4c 96 bf 18 25 88 3d
       0.13545927 -0.38503683 -1.1742215 0.066477
000080 1d 26 44 bf c6 be 85 be 3b 1a 8f 3e fc d1 02 be
       -0.76620656 -0.2612211 0.279497 -0.12775415
000090 9c 43 d2 bd 20 eb a0 be ab 94 fb bd bb ec 3c 3f
       -0.10266802 -0.31429386 -0.122842155 0.7379872
0000a0 15 62 ce 3e 26 4e 30 3f 8a 73 db bc fe c1 4d 3e
       0.40309206 0.68869245 -0.026788492 0.20093533
0000b0 06 1e 3c 3e 4c e3 e5 bd f9 71 a9 3f e6 17 0b be
       0.18370828 -0.11224994 1.3237907 -0.13583335
0000c0 1c 53 8d 3c 98 c0 96 be 5a 08 95 3e 2f 60 d7 be
       0.017251544 -0.29443812 0.29107934 -0.4206557
0000d0 e0 81 23 be 02 91 70 3e 83 bb 25 3e 47 86 09 3f
       -0.15967512 0.23492816 0.16184811 0.53720516
0000e0 2a 8d 03 3e 6b ee 0e 3f ea e3 2c bc c8 6f 0e bd
       0.12846819 0.55832547 -0.010552386 -0.03477457
0000f0 10 74 fc bd 75 8d b0 3e dd 6c 55 3e c5 e2 e0 3e
       -0.12326825 0.34482923 0.2084231 0.4392301
000100 78 61 eb be 5c b5 f4 3d 25 1c d2 3e e8 88 86 3d
       -0.459728 0.11948654 0.41037098 0.065690815
000110 8f fb e2 3c 11 99 a0 3e 64 dc 45 be ca 04 be 3e
       0.027707843 0.3136678 -0.19322354 0.3711303
000120 92 41 30 be c6 a6 53 3f 52 6e 8a 3e 1a 29 13 3e
       -0.17212513 0.8267635 0.27037293 0.14371148
000130 24 29 cd 3d f4 a0 d7 3d dd c6 94 3f a4 7e 25 3e
       0.100176126 0.10528746 1.1623188 0.16161591
000140 6b 9f 9f bd c6 42 b2 be 71 f5 76 3e 70 78 0d bd
       -0.077940784 -0.3481657 0.24117066 -0.034538686
000150 57 a1 49 3f b2 6b 07 3e 50 ff a8 bb 87 f1 62 bf
       0.7876181 0.13224676 -0.0051573887 -0.8864979
000160 f4 6c c9 be 40 f1 64 be d0 20 31 bf 55 21 9f 3e
       -0.39340937 -0.22357655 -0.6919069 0.31080118
000170 34 a9 c0 be 3d b6 9d 3e 52 9a 9f bf 16 c9 4a 3e
       -0.37629092 0.308031 -1.246897 0.1980327
000180 06 d7 c6 3e f5 89 82 3e ae 04 9e 3e 26 df 56 3e
       0.38835925 0.25495878 0.30862945 0.20983562
000190 54 41 78 be 56 5e 1d be 0d 9d 44 be 50 86 23 3e
       -0.2424367 -0.15368018 -0.19200535 0.15969205
0001a0 9d 03 94 3e a0 6a cd be 80 78 13 3e 36 24 b8 be
       0.28909007 -0.4012041 0.14401436 -0.35965127
0001b0 3a 0d 5b 3e a1 86 87 3e 60 9a ae bc ad c5 83 be
       0.21391764 0.264699 -0.021313846 -0.25736752
0001c0 ec ba 8e be 32 dc 28 3e 16 9e 5f 3e 40 15 7f 3d
       -0.27876985 0.16490248 0.21837649 0.062276125
0001d0 5c c5 b3 be 04 75 ca 3d f3 ce d9 be ba d4 4f 3e
       -0.3511151 0.098856 -0.42540702 0.20295992
0001e0 76 0f 71 3e 80 72 14 3c 8d 49 8d be 8f dc 92 3e
       0.23541054 0.009060502 -0.27595177 0.28683898
0001f0 3a 81 33 be 97 df b1 3e a4 27 89 3d 96 2a 45 be
       -0.17529765 0.34740898 0.06697014 -0.19254526
000200 aa 40 4d 3f 67 5b aa be 5e 32 b7 3e 50 a6 35 3d
       0.80176795 -0.3327286 0.35780615 0.04434806
000210 91 31 30 3f da 52 cc be bc 16 ab 3e b6 fb 4a be
       0.6882563 -0.3990696 0.33415782 -0.19822583
000220 58 f8 32 be b1 cf 00 bf 23 32 fe 3c aa 75 4a 3e
       -0.17477548 -0.5031691 0.031029766 0.19771448
000230 0c b2 06 be 80 8a 8f be 95 b6 5f bf 1b 95 6b bd
       -0.13153857 -0.28035355 -0.87387973 -0.057515245
000240 99 db 0e 3f c0 d5 3b 3d d8 10 87 bf dc a8 ca be
       0.5580383 0.045858145 -1.0552015 -0.39581954
000250 df 5a 81 3e c6 8f 52 be e6 43 8e bf 55 24 73 3f
       0.25264642 -0.20562658 -1.1114471 0.94977313
000260 78 74 3b be 27 6c 38 be 76 3f e7 3c 29 c2 d6 3e
       -0.18306148 -0.18010007 0.028228503 0.41945007
000270 34 f6 d8 3d c0 ee 2a bd d4 cf c3 3d 02 b6 d0 be
       0.105938345 -0.041731596 0.095611244 -0.4076386
000280 e9 92 25 3e 2d c4 a2 3e 10 a3 ec be 40 cc c2 3b
       0.16169323 0.31790295 -0.46218157 0.0059447587
000290 5b f3 51 3f be 7d 8d be ee be 4c 3e 9d 7a b5 bf
       0.82011956 -0.27634996 0.19994709 -1.4178044
0002a0 94 c7 d3 bd 9c 2e bf be 1c 28 a3 bf c0 63 53 bc
       -0.10340801 -0.37340248 -1.2746615 -0.0129022
0002b0 52 0f 6a 3e 7b e7 6d be 54 3c cd bf a7 31 5f bd
       0.22857407 -0.23232834 -1.6034036 -0.05449071
0002c0 22 1f b5 be dc 97 d2 bd b1 72 26 3e 67 d7 be 3e
       -0.35375315 -0.10282871 0.16254689 0.37273714
0002d0 12 9e dc 3d a7 25 b4 3e f9 f1 39 be d7 a3 46 3e
       0.10772337 0.35184976 -0.18158711 0.19398437
0002e0 d0 53 54 be db 04 61 3c 67 f3 af 3d 2c d1 e0 bd
       -0.20735097 0.013734068 0.08591347 -0.10977396
0002f0 3f 5e d9 3e 4c f3 b0 be 1f 1c 70 3e 79 46 7a be
       0.42454717 -0.3456062 0.23448227 -0.24440946
000300 68 f2 bd be 9f 67 aa be d0 3e de bc 40 d3 30 3d
       -0.37099004 -0.33282182 -0.02712956 0.043170214
000310 6a e6 19 be d8 10 1e be bd 33 65 be 77 68 a6 3e
       -0.15029302 -0.15436113 -0.22383018 0.32501575
000320 e9 8d d2 3e 7c e2 ff 3d 95 e7 d0 3e 71 59 cf 3e
       0.41123894 0.1249437 0.40801683 0.40497926
000330 72 00 b8 be 46 6c af be 4e 9c 0e 3e 80 f1 a6 be
       -0.3593784 -0.34262294 0.13926813 -0.32606125
000340 ca 45 5e 3f d6 05 5b 3e 9a c5 ff 3d 94 2b f3 3d
       0.8682524 0.21388945 0.124888614 0.11873546
000350 3f 58 24 3f e9 92 93 be 9d 00 6b 3e fb b5 db be
       0.6419715 -0.2882302 0.22949453 -0.42912278
000360 d2 04 6a 3e 00 25 cd be f4 86 77 3d 52 24 51 3e
       0.22853401 -0.4006729 0.060431436 0.20424011
000370 8e d8 a7 be b9 ce c2 3e c0 cc 7b bf 58 96 a7 3c
       -0.32782406 0.38048342 -0.983593 0.020457432
000380 e0 52 db 3d 88 5c 6c 3d 5c db b5 3e 8f 2c d9 3e
       0.107091665 0.057705432 0.3551892 0.42416808
000390 b5 b2 11 3f e6 97 35 3e 57 76 74 bd 7a fa cc be
       0.5691331 0.17733726 -0.05968317 -0.40034848
0003a0 d2 56 77 3e ae 0b 04 bf c8 c9 87 3d f0 7e 11 be
       0.24154213 -0.5158032 0.066302836 -0.14208579
0003b0 10 91 33 be 1f ff d9 be 95 2e c8 be 51 4a 3c 3e
       -0.17535806 -0.42577454 -0.3909804 0.18387724
0003c0 d6 67 3d 3e 7f cd a1 3e 20 5d 07 3e b1 94 b7 3e
       0.18496642 0.31602094 0.13219118 0.3585563
0003d0 00 fe 40 3e e2 1d 80 be 01 b7 bc 3e 63 92 39 be
       0.18846893 -0.250228 0.3685837 -0.18122248
0003e0 00 bf ad 3a cb ca 1f bd 7d 11 5c 3e 8c 7b b2 3d
       0.0013255775 -0.039011758 0.21491046 0.08714971
0003f0 bc ab cc 3d 10 a3 95 bd 61 df e9 be 1b 7a ef 3c
       0.09993693 -0.07306492 -0.45678237 0.02923303

sequential_3/dense_10/MatMul f4 [1, 16]
000000 ac aa e9 be 4e 1b 11 40 a3 7f 0d 40 c2 f1 1a 3e
       -0.45638025 2.2672915 2.2109153 0.15131286
000010 f3 52 29 3f b6 25 2a bf 8c aa a4 be d4 3c 91 be
       0.66142195 -0.6646379 -0.32161367 -0.2836672
000020 b0 18 c6 be f6 7d 15 c0 c3 3d 00 40 a6 13 11 3f
       -0.3869071 -2.335813 2.0037696 0.56670606
000030 81 92 8c be aa 05 7c bf 15 46 57 bf 9e d6 d8 be
       -0.27455524 -0.9844614 -0.8409131 -0.4235124
