TensorFlow_HelloWorld/models/model.tflite (tflite, 2312 bytes, 3 tensors)

sequential_3/dense_8/MatMul i1 [16, 1] scale=0.0043640947 zero_point=0
000000 14 a5 3b 81 25 bf 53 5a d9 5f 1d 8d c4 a4 4c 37
       0.0872819 -0.3971326 0.25748158 -0.55424005 0.1614715 -0.28366616 0.36221987 0.39276853 -0.17019969 0.414589 0.12655875 -0.5018709 -0.26184568 -0.4014967 0.3316712 0.2400252

sequential_3/dense_9/MatMul i1 [16, 16] scale=0.012625225 zero_point=0
000000 21 0d 12 0d fd 10 18 f4 fd fe 05 15 e7 f7 d3 1a
       0.4166324 0.16412792 0.22725405 0.16412792 -0.037875675 0.2020036 0.3030054 -0.1515027 -0.037875675 -0.02525045 0.063126124 0.26512972 -0.3156306 -0.113627024 -0.56813514 0.32825583
000010 14 eb f2 ef 46 07 05 bc ef c4 99 11 0b e2 a3 05
       0.2525045 -0.26512972 -0.17675315 -0.21462882 0.88376576 0.088376574 0.063126124 -0.85851526 -0.21462882 -0.7575135 -1.3003981 0.21462882 0.13887748 -0.37875676 -1.1741459 0.063126124
000020 c3 eb 16 f6 f8 e7 f6 3a 20 37 fe 10 0f f7 69 f5
       -0.77013874 -0.26512972 0.27775496 -0.12625225 -0.1010018 -0.3156306 -0.12625225 0.732263 0.4040072 0.6943874 -0.02525045 0.2020036 0.18937838 -0.113627024 1.3256487 -0.13887748
000030 01 e9 17 df f3 13 0d 2b 0a 2c ff fd f6 1b 11 23
       0.012625225 -0.29038018 0.29038018 -0.4166324 -0.16412792 0.23987928 0.16412792 0.54288465 0.12625225 0.5555099 -0.012625225 -0.037875675 -0.12625225 0.34088108 0.21462882 0.44188288
000040 dc 09 21 05 02 19 f1 1d f2 41 15 0b 08 08 5c 0d
       -0.4545081 0.113627024 0.4166324 0.063126124 0.02525045 0.3156306 -0.18937838 0.3661315 -0.17675315 0.8206396 0.26512972 0.13887748 0.1010018 0.1010018 1.1615207 0.16412792
000050 fa e4 13 fd 3e 0a 00 ba e1 ee c9 19 e2 18 9d 10
       -0.07575135 -0.3535063 0.23987928 -0.037875675 0.78276396 0.12625225 0.0 -0.88376576 -0.39138198 -0.22725405 -0.6943874 0.3156306 -0.37875676 0.3030054 -1.2498972 0.2020036
000060 1f 14 18 11 ed f4 f1 0d 17 e0 0b e4 11 15 fe ec
       0.39138198 0.2525045 0.3030054 0.21462882 -0.23987928 -0.1515027 -0.18937838 0.16412792 0.29038018 -0.4040072 0.13887748 -0.3535063 0.21462882 0.26512972 -0.02525045 -0.2525045
000070 ea 0d 11 05 e4 08 de 10 13 01 ea 17 f2 1c 05 f1
       -0.27775496 0.16412792 0.21462882 0.063126124 -0.3535063 0.1010018 -0.42925763 0.2020036 0.23987928 0.012625225 -0.27775496 0.29038018 -0.17675315 0.3535063 0.063126124 -0.18937838
000080 40 e6 1c 04 37 e0 1a f0 f2 d8 02 10 f6 ea bb fb
       0.8080144 -0.32825583 0.3535063 0.0505009 0.6943874 -0.4040072 0.32825583 -0.2020036 -0.17675315 -0.505009 0.02525045 0.2020036 -0.12625225 -0.27775496 -0.87114054 -0.063126124
000090 2c 04 ac e1 14 f0 a8 4b f2 f2 02 21 08 fd 08 e0
       0.5555099 0.0505009 -1.0605189 -0.39138198 0.2525045 -0.2020036 -1.1110198 0.94689184 -0.17675315 -0.17675315 0.02525045 0.4166324 0.1010018 -0.037875675 0.1010018 -0.4040072
0000a0 0d 19 db 00 41 ea 10 90 f8 e2 9b ff 12 ee 81 fc
       0.16412792 0.3156306 -0.4671333 0.0 0.8206396 -0.27775496 0.2020036 -1.4140252 -0.1010018 -0.37875676 -1.2751477 -0.012625225 0.22725405 -0.22725405 -1.6034036 -0.0505009
0000b0 e4 f8 0d 1e 09 1c f2 0f f0 01 07 f7 22 e5 13 ed
       -0.3535063 -0.1010018 0.16412792 0.37875676 0.113627024 0.3535063 -0.17675315 0.18937838 -0.2020036 0.012625225 0.088376574 -0.113627024 0.42925763 -0.34088108 0.23987928 -0.23987928
0000c0 e3 e6 fe 03 f4 f4 ee 1a 21 0a 20 20 e4 e5 0b e6
       -0.3661315 -0.32825583 -0.02525045 0.037875675 -0.1515027 -0.1515027 -0.22725405 0.32825583 0.4166324 0.12625225 0.4040072 0.4040072 -0.3535063 -0.34088108 0.13887748 -0.32825583
0000d0 45 11 0a 09 33 e9 12 de 12 e0 05 10 e6 1e b2 02
       0.87114054 0.21462882 0.12625225 0.113627024 0.64388645 -0.29038018 0.22725405 -0.42925763 0.22725405 -0.4040072 0.063126124 0.2020036 -0.32825583 0.37875676 -0.98476756 0.02525045
0000e0 08 05 1c 22 2d 0e fb e0 13 d7 05 f5 f2 de e1 0f
       0.1010018 0.063126124 0.3535063 0.42925763 0.56813514 0.17675315 -0.063126124 -0.4040072 0.23987928 -0.5176342 0.063126124 -0.13887748 -0.17675315 -0.42925763 -0.39138198 0.18937838
0000f0 0f 19 0a 1c 0f ec 1d f2 00 fd 11 07 08 fa dc 02
       0.18937838 0.3156306 0.12625225 0.3535063 0.18937838 -0.2525045 0.3661315 -0.17675315 0.0 -0.037875675 0.21462882 0.088376574 0.1010018 -0.07575135 -0.4545081 0.02525045

sequential_3/dense_10/MatMul i1 [1, 16] scale=0.01839223 zero_point=0
000000 e7 7b 78 08 24 dc ef f1 eb 81 6d 1f f1 ca d2 e9
       -0.45980573 2.2622442 2.2070675 0.14713784 0.6621203 -0.6621203 -0.3126679 -0.27588344 -0.38623682 -2.335813 2.004753 0.57015914 -0.27588344 -0.9931804 -0.8460426 -0.4230213
